…
          "base_uri": "https://localhost:8080/"
        },
        "id": "s6uVgEeTuvuc",
        "outputId": "cb3db1e0-2660-4ff1-b49d-932713893f4a"
      },
      "execution_count": 24,
      "outputs": [
        {
          "output_type": "stream",
          "name": "stdout",
          "text": [
            "Model: \"sequential\"\n",
            "_________________________________________________________________\n",
            " Layer (type)                Output Shape              Param #   \n",
            "=================================================================\n",
            " conv2d (Conv2D)             (None, 124, 124, 6)       456       \n",
            "                                                                 \n",
            " max_pooling2d (MaxPooling2D  (None, 62, 62, 6)        0         \n",
            " )                                                               \n",
            "                                                                 \n",
            " conv2d_1 (Conv2D)           (None, 58, 58, 16)        2416      \n",
            "                                                                 \n",
            " max_pooling2d_1 (MaxPooling  (None, 29, 29, 16)       0         \n",
            " 2D)                                                             \n",
            "                                                                 \n",
            " flatten (Flatten)           (None, 13456)             0         \n",
            "                                                                 \n",
            " dense (Dense)               (None, 255)               3431535   \n",
            "                                                                 \n",
            " dropout (Dropout)           (None, 255)               0         \n",
            "                                                                 \n",
            " dense_1 (Dense)             (None, 124)               31744     \n",
            "                                                                 \n",
            " dropout_1 (Dropout)         (None, 124)               0         \n",
            "                                                                 \n",
            " dense_2 (Dense)             (None, 84)                10500     \n",
            "                                                                 \n",
            " dense_3 (Dense)             (None, 43)                3655      \n",
            "                                                                 \n",
            "=================================================================\n",
            "Total params: 3,480,306\n",
            "Trainable params: 3,480,306\n",
            "Non-trainable params: 0\n",
            "_________________________________________________________________\n"
          ]
        }
…
